Speech Recognition Model/model.tflite (tflite, 640452 bytes, 10 tensors)

arith.constant f4 [32]
0.0004034657 0.13536507 0.002087727 -0.058782037 0.11640877 0.0015945053 0.0009409245 0.015280286
0.10335676 -0.0020565037 0.029699074 -0.0016376618 -0.0012750523 0.032215863 0.0042911153 -0.19005485
0.0046744044 0.00706055 -0.0012924448 -0.0010102736 0.0005979929 -0.0014593313 0.079057045 0.0013271291
0.0035469458 -0.0042420365 0.039779957 0.0050980225 0.012100432 0.057702318 -0.0013201619 -0.00068058725
00000000: 4088 d339 249d 0a3e 3fd2 083b 6fc5 70bd
00000010: b967 ee3d b8fe d03a 60a8 763a 2a5a 7a3c
00000020: b6ac d33d 68c6 06bb 794b f33c d0a6 d6ba
00000030: a81f a7ba c8f4 033d 7c9c 8c3b bd9d 42be
00000040: bf2b 993b 305c e73b 4067 a9ba 286b 84ba
00000050: a0c2 1c3a 0847 bfba a9e8 a13d 10f3 ad3a
00000060: e073 683b c800 8bbb 4ff0 223d 500d a73b
00000070: e440 463c 4459 6c3d 4809 adba 7069 32ba

arith.constant1 f4 [32, 3, 3, 1]
-0.020610731 0.18059163 -0.030613437 0.09635197 0.23330845 0.13743158 -0.29392844 0.082392134
0.11066041 0.10728305 -0.21811233 -0.2711097 -0.18264014 -0.39628708 -0.18227382 -0.16305779
-0.15060584 0.19231713 0.18325892 -0.07369665 -0.1051862 -0.1311147 0.23941039 0.14703026
-0.2152851 -0.15673925 -0.020300724 -0.003911399 0.24791084 -0.105147704 -0.04975647 0.076868296
-0.2014103 0.17363279 0.25710124 -0.090283945 0.29614973 -0.0588094 -0.06090588 -0.042097297
-0.34619913 -0.2930561 -0.0111639835 -0.35027143 -0.31565908 0.122775055 0.035067666 0.11776816
-0.11357405 0.23417653 0.20782277 0.07562229 -0.19970115 -0.06618205 0.045116678 0.2938131
0.08310063 -0.24390492 0.06364202 0.058621146 -0.37255016 -0.037193183 0.21136908 0.23167859
-0.13515623 -0.37761012 0.13599232 -0.12329347 -0.016756374 -0.18704735 0.2614534 -0.046730928
-0.4381007 -0.38422805 -0.22508122 -0.3408636 -0.041221198 0.14856751 0.06257225 0.20528726
0.012177791 -0.0822235 0.1964096 -0.13216142 -0.17905426 0.21778679 0.21552326 0.0009042486
0.15941206 0.10138161 0.26289645 -0.15601549 -0.07620365 -0.1289333 -0.49273595 -0.06569732
-0.009077961 -0.028603213 0.20714557 -0.04656488 0.052310683 0.016009111 0.121333055 0.13153306
0.15776703 -0.020176645 -0.15167128 0.22622189 0.18901 -0.039674554 0.08083962 0.22748442
-0.1003084 0.18989812 -0.057651803 -0.04010895 0.12692146 -0.32383093 -0.220187 -0.18682551
0.058347713 0.1560229 0.17547743 0.014721417 0.00737416 -0.028623646 -0.11314466 0.08368256
-0.035650812 -0.070107326 0.06406454 0.014478473 0.19349985 0.23194988 0.16089404 0.1916204
0.1430161 0.11585854 0.23479857 0.21163769 0.18137343 0.15807499 0.22726366 0.23069878
-0.20621055 0.006056888 0.2146521 -0.042066306 0.14616106 0.056048427 -0.024547305 0.2625453
0.043766744 -0.35523745 -0.1367972 0.11080751 -0.23294951 0.10788938 0.21067475 -0.12335111
0.27705145 0.08831686 0.05641378 -0.042386334 -0.02591315 0.2561223 0.11505988 -0.21930987
0.18576498 -0.023013398 -0.30246514 -0.065319575 -0.0019925928 0.12028228 0.1132402 -0.07833904
0.0885426 0.20617062 -0.06826702 -0.117956385 -0.0028923007 0.18536271 0.1854898 -0.090549335
0.21918038 0.022595316 -0.0106989145 0.014459277 0.1685125 0.032144453 -0.083831735 0.27098218
0.08992405 -0.17028849 0.19653684 0.05417356 -0.3843418 0.0743881 0.04866853 0.18127438
0.14673509 0.01739088 -0.23457083 0.04805153 -0.41303954 -0.27201605 -0.16876408 -0.18423279
0.020918915 -0.16688733 -0.089274876 -0.12862232 0.1049045 0.22684358 0.24159949 0.20230864
0.1618866 0.08493881 -0.105581455 -0.07262119 0.28164986 0.18147114 -0.046833754 -0.001987755
0.13685174 0.15050171 0.15737621 -0.12329007 0.13754664 0.23439339 -0.16889292 0.21038759
0.18853053 -0.101926565 -0.12226423 -0.055907242 0.25321147 -0.13094856 -0.2568495 0.052671574
0.25339285 -0.23463765 -0.19979301 0.14906819 -0.21602282 0.1477193 0.04697206 0.07934684
-0.13766545 -0.089405514 0.15773164 -0.16054536 0.18000574 0.24770784 0.0980248 0.14252467
00000000: d6d7 a8bc 03ed 383e 08c9 fabc 2f54 c53d
00000010: 69e8 6e3e ddba 0c3e ca7d 96be 35bd a83d
00000020: eda1 e23d 37b7 db3d d758 5fbe e4ce 8abe
00000030: 0406 3bbe 24e6 cabe fda5 3abe 9ff8 26be
00000040: 6b38 1abe c8ee 443e 3aa8 3b3e 45ee 96bd
00000050: dd6b d7bd ef42 06be ff27 753e 1a8f 163e
00000060: b273 5cbe 4180 20be b44d a6bc 312b 80bb
00000070: 57dc 7d3e ae57 d7bd 71cd 4bbd 206d 9d3d
00000080: 803e 4ebe cbcc 313e c6a2 833e cae6 b8bd
00000090: f0a0 973e 20e2 70bd 7278 79bd 376e 2cbd
000000a0: 0341 b1be 730b 96be 24e9 36bc c756 b3be
000000b0: 119e a1be 7d71 fb3d 1da3 0f3d 6f30 f13d
000000c0: 8399 e8bd f9cb 6f3e 7ecf 543e dcdf 9a3d
000000d0: 757e 4cbe 748a 87bd 44cc 383d ac6e 963e
000000e0: aa30 aa3d 36c2 79be bf56 823d ba1c 703d
000000f0: e5be bebe e157 18bd 2371 583e 273d 6d3e
00000100: 6566 0abe 1d56 c1be 9241 0b3e 4981 fcbd
00000110: aa44 89bc 5789 3fbe 38dd 853e ee68 3fbd
00000120: bc4e e0be 8ab9 c4be b17b 66be ac85 aebe
00000130: 8fd7 28bd 1522 183e e125 803d d336 523e
00000140: 5c85 473c cb64 a8bd 991f 493e 5355 07be
00000150: 005a 37be 8003 5f3e 21b2 5c3e 190b 6d3a
00000160: ea3c 233e 29a1 cf3d 5d9a 863e 86c2 1fbe
00000170: a910 9cbd 1707 04be e347 fcbe 518c 86bd
00000180: babb 14bc 4951 eabc f81d 543e d1ba 3ebd
00000190: ba43 563d 8a25 833c 777d f83d 9ab0 063e
000001a0: ae8d 213e 7e49 a5bc b74f 1bbe b6a6 673e
000001b0: d68b 413e c981 22bd 3e8f a53d adf1 683e
000001c0: 7e6e cdbd a774 423e 4c24 6cbd 4849 24bd
000001d0: b3f7 013e 2bcd a5be b378 61be 304f 3fbe
000001e0: 03fe 6e3d 78c4 1f3e 5bb0 333e 1932 713c
000001f0: f0a2 f13b 237c eabc 63b8 e7bd c361 ab3d
00000200: 9606 12bd 6e94 8fbd 4534 833d 1e37 6d3c
00000210: d324 463e 4584 6d3e 68c1 243e 2338 443e
00000220: d072 123e 3e47 ed3d 096f 703e 8db7 583e
00000230: f5b9 393e 69de 213e ceb7 683e 4d3c 6c3e
00000240: dc28 53be dc78 c63b c3cd 5b3e b84d 2cbd
00000250: 3fab 153e 0993 653d 6e17 c9bc 566c 863e
00000260: c244 333d afe1 b5be 9114 0cbe 0cef e23d
00000270: 518a 6ebe 1bf5 dc3d 1fbb 573e 829f fcbd
00000280: b0d9 8d3e 78df b43d 2312 673d 4b9d 2dbd
00000290: d047 d4bc 7622 833e 84a4 eb3d c492 60be
000002a0: 2d39 3e3e 9886 bcbc b6dc 9abe 45c6 85bd
000002b0: 2996 02bb 8e56 f63d 7aea e73d 3870 a0bd
000002c0: d355 b53d 641e 533e 94cf 8bbd 1e93 f1bd
000002d0: c18c 3dbb b9cf 3d3e 0af1 3d3e ee71 b9bd
000002e0: d270 603e d019 b93c 804a 2fbc 9ae6 6c3c
000002f0: 8a8e 2c3e e7a9 033d f9af abbd 2dbe 8a3e
00000300: 1a2a b83d 1b60 2ebe f440 493e 18e5 5d3d
00000310: 73c8 c4be ca58 983d a758 473d fe9f 393e
00000320: b941 163e 5277 8e3c 5633 70be aed1 443d
00000330: eb79 d3be b045 8bbe 7ed0 2cbe 85a7 3cbe
00000340: 255e ab3c 83e4 2abe bfd5 b6bd 92b5 03be
00000350: 2cd8 d63d af49 683e db65 773e ff29 4f3e
00000360: 9ac5 253e 66f4 ad3d 173b d8bd 6bba 94bd
00000370: 6934 903e 92d3 393e c0d4 3fbd ff44 02bb
00000380: dd22 0c3e 1f1d 1a3e 3b27 213e 817f fcbd
00000390: 07d9 0c3e d204 703e 44f2 2cbe d86f 573e
000003a0: 260e 413e e0be d0bd ab65 fabd fefe 64bd
000003b0: efa4 813e 6117 06be c781 83be 26be 573d
000003c0: b5bc 813e da44 70be 8a96 4cbe 55a5 183e
000003d0: 1635 5dbe ba43 173e c665 403d 9980 a23d
000003e0: 2cf8 0cbe 3d1a b7bd 6784 213e 0166 24be
000003f0: 6d53 383e 20a7 7d3e 3ac1 c83d fdf1 113e

arith.constant2 f4 [128]
0.04720393 0.09140182 0.053336307 -0.01607015 0.038682323 0.011041867 0.058865547 0.0010762578
0.055309575 0.031830937 -0.008764518 0.016809346 0.04551703 0.010669732 0.0130521 -0.01285749
-0.027355574 0.114468835 -0.056173295 0.038325127 -0.011282245 0.004920364 0.0812225 0.010376925
0.007746468 0.007941304 -0.010975416 0.013967149 0.049365405 0.03881309 0.002312525 -0.018966107
-0.015896628 0.017034143 0.043109924 0.013142964 0.012151902 0.010973309 0.03251174 0.014313786
0.02431618 0.020002399 0.0075027677 0.015595525 0.016964685 -0.005718199 -0.03981107 0.018832492
-0.005314546 0.036401078 0.02401606 -0.011497037 0.032504927 0.007295424 0.015096824 -0.019052789
0.0043763747 -0.0116224345 -0.012871975 0.04502739 0.036550384 -0.009572514 0.030686937 -0.0116562415
0.019656291 -0.01883888 0.012041205 0.014260767 0.030845186 0.0060702995 0.021446357 -0.00015872737
0.043608353 0.043839965 0.032502424 -0.022910973 0.034460656 0.056201663 0.01165094 0.014479526
-0.018721677 0.04768478 -0.028150244 -0.085040204 0.04800944 0.011946284 0.015479568 0.020894567
0.04153624 -0.013027003 0.020010596 0.03444477 -0.0008771938 0.01855057 0.025421664 0.048005596
-0.036968865 0.001021448 -0.0075261197 0.010996158 0.023567865 0.01771251 0.04090664 -0.010426251
0.017910756 0.010633608 0.04730253 -0.010578643 0.00019668863 0.020040207 0.048021555 -0.00990241
0.036546968 0.01132557 0.04857586 0.06533284 0.010020264 0.016761204 0.040434547 0.036284957
0.03607982 -0.008951291 0.011590084 0.00949022 0.016415656 0.012906454 0.024602273 0.019099697
00000000: e858 413d e130 bb3d 2c77 5a3d 8ca5 83bc
00000010: 5b71 1e3d f2e8 343c 001d 713d 3811 8d3a
00000020: 4b8c 623d 2861 023d 0e99 0fbc c1b3 893c
00000030: 1170 3a3d 19d0 2e3c 7ad8 553c 39a8 52bc
00000040: cc18 e0bc a36e ea3d f815 66bd cffa 1c3d
00000050: 2ad9 38bc 013b a13b fb57 a63d fa03 2a3c
00000060: 15d6 fd3b 3e1c 023c 3bd2 33bc 78d6 643c
00000070: 6133 4a3d 7afa 1e3d bb8d 173b cf5e 9bbc
00000080: a539 82bc 308b 8b3c 0894 303d 9655 573c
00000090: c518 473c 65c9 333c 082b 053d 5f84 6a3c
000000a0: ba32 c73c 12dc a33c c7d9 f53b 5f84 7f3c
000000b0: 86f9 8a3c bb5f bbbb ef10 23bd 9946 9a3c
000000c0: a525 aebb 4c19 153d 54bd c43c 115e 3cbc
000000d0: e323 053d 740e ef3b ab58 773c 9814 9cbc
000000e0: b167 8f3b 066c 3ebc fae4 52bc a46e 383d
000000f0: dbb5 153d 09d6 1cbc 2c63 fb3c d2f9 3ebc
00000100: 3b06 a13c ff53 9abc 7948 453c fea5 693c
00000110: 0baf fc3c 5de9 c63b 45b0 af3c 0e70 26b9
00000120: ac9e 323d 8991 333d 4321 053d cbaf bbbc
00000130: 9e26 0d3d b733 663d 96e3 3e3c 893b 6d3c
00000140: 345e 99bc 1e51 433d 579b e6bc 8f29 aebd
00000150: 8ca5 443d 59ba 433c 049e 7d3c 152b ab3c
00000160: e821 2a3d 366f 55bc 43ed a33c f615 0d3d
00000170: 7bf3 65ba 5df7 973c 1841 d03c 84a1 443d
00000180: aa6c 17bd 1ce2 853a ab9d f6bb 3b29 343c
00000190: 6511 c13c d319 913c b98d 273d ded2 2abc
000001a0: 94b9 923c 9638 2e3c 4cc0 413d 0b52 2dbc
000001b0: 343e 4e39 5c2b a43c 40b2 443d b83d 22bc
000001c0: 46b2 153d e28e 393c 7bf7 463d 39cd 853d
000001d0: 092c 243c cb4e 893c b29e 253d 899f 143d
000001e0: 6fc8 133d 70a8 12bc 56e4 3d3c de7c 1b3c
000001f0: 207a 863c 9775 533c b58a c93c f876 9c3c

arith.constant3 f4 [64]
0.041224204 0.03548452 0.030451402 0.049600814 0.010075769 0.017615698 0.0024206697 0.002726964
0.049863007 -0.01138494 0.051283397 0.023462536 0.08588919 0.04123913 0.03724139 0.05429567
-0.0040856376 0.053684447 0.052748136 0.031789314 -0.039625514 0.067403786 0.03306772 0.104834996
0.03276968 0.023294333 0.023087176 0.09150264 -0.0072602606 0.05934244 0.0074657635 -0.0026782034
0.026390972 0.008561004 0.031466357 -0.00040162334 0.023542834 0.04131184 0.075471476 0.055683546
0.031226415 0.039094307 0.009952804 0.03075164 0.099634044 0.04970951 0.021448182 0.034138087
0.015596069 -0.007907519 -0.007637244 0.0671763 0.03766045 0.018164083 0.026459916 0.028112652
0.0628447 0.03074646 0.027467668 0.00352766 0.015327827 0.030100798 -0.012244245 0.06545602
00000000: b6da 283d 3758 113d 3875 f93c 392a 4b3d
00000010: d714 253c cc4e 903c 19a4 1e3b ddb6 323b
00000020: 273d 4c3d e687 3abc 8a0e 523d 8134 c03c
00000030: ace6 af3d 5dea 283d 6e8a 183d 2365 5e3d
00000040: d0e0 85bb 39e4 5b3d 6e0e 583d 8335 023d
00000050: 5d4e 22bd ff0a 8a3d 0472 073d bbb3 d63d
00000060: 8039 063d c2d3 be3c 5121 bd3c bc65 bb3d
00000070: 7be7 edbb 0f11 733d 5da3 f43b cc84 2fbb
00000080: e131 d83c 7443 0c3c dee2 003d f990 d2b9
00000090: e7dc c03c 9b36 293d ca90 9a3d 6e14 643d
000000a0: 8ace ff3c 5a21 203d 1611 233c ddea fb3c
000000b0: ef0c cc3d 339c 4b3d 19b4 af3c 61d4 0b3d
000000c0: a886 7f3c 8a8e 01bc d941 fabb ba93 893d
000000d0: d841 1a3d d8cc 943c 77c2 d83c 814c e63c
000000e0: b9b4 803d 00e0 fb3c e003 e13c 5030 673b
000000f0: 9121 7b3c f395 f63c 169c 48bc ce0d 863d

arith.constant4 f4 [128, 3, 3, 64]
-0.026957817 0.03658364 -0.07786006 -0.0057054786 -0.07487294 -0.08903105 0.019043783 0.0054592476
-0.07067675 -0.049183324 -0.04963891 -0.0061420402 0.046390984 0.034765087 -0.03573521 0.04216093
0.0058690174 -0.04366377 0.09714311 0.030833567 0.042136054 -0.029042568 0.10197581 0.037887465
-0.0017056252 -0.09328758 -0.06791748 0.053852666 -0.025526833 5.8825855e-05 -0.0009880789 -0.019375477
0.036790244 -0.011272015 -0.038392607 0.022978202 -0.11242412 -0.030363899 -0.0071568796 5.1373703e-05
-0.00025562855 -0.04891262 0.027574858 -0.053525764 0.02392455 -0.062256135 0.026443433 0.04900638
-0.05863425 -0.035221063 -0.061577152 0.024495661 -0.033477623 -0.027309502 0.024472632 -0.022327168
-0.10048378 -0.017679648 -0.054776963 0.041261934 -0.05774688 0.011432901 0.021737842 -0.0137855355
-0.047791936 0.08949091 -0.033923447 -0.042838994 -0.05732958 0.063561276 -0.088809215 -0.0055336584
-0.07093826 0.004413021 0.11283882 0.109989226 0.00922838 0.055812873 0.053022396 -0.10367814
-0.13344575 0.11298529 -0.017832302 -0.060528107 -0.0455594 -0.0036250562 0.056395628 0.028679691
-0.025377559 -0.119495384 -0.08021685 0.048295673 0.043776117 0.014017631 0.0402282 -0.041584894
0.085421465 -0.08432707 0.013301385 -0.024402173 -0.05573261 0.016480504 -0.04808621 -0.079961024
0.0557447 -0.045308996 -0.08419174 0.010294201 0.14089818 0.056359872 -0.15408346 -0.009463339
0.03485711 0.05187486 -0.035029907 0.018474154 -0.054857567 -0.03846823 -0.055225134 -0.07311253
0.013810286 -0.01788923 -0.0878164 -0.015354423 -0.060735077 -0.049986776 -0.04396104 0.025241613
-0.026245354 0.02510713 -0.01756164 0.02636747 0.059373587 -0.017401887 0.005364598 0.024187624
-0.060476772 -0.0072795846 0.08743311 0.068151265 -0.0018024396 -0.01678634 0.05323311 0.04493187
-0.16739894 0.061106034 0.13151984 0.079178646 -0.023996128 0.077946275 0.08406389 0.03273219
-0.010233046 -0.03615947 -0.11527529 0.021151017 -0.0338846 0.07897653 -0.020581482 -0.025280077
0.14863679 0.031152075 0.004523636 -0.08922065 -0.0634175 -0.022036918 0.037398618 0.111124285
0.105333574 0.11605085 -0.055260185 0.0044879457 0.03629113 -0.008758721 -0.037374627 0.034570955
0.0677267 0.017566202 0.017844453 -0.016949553 0.018516667 0.023749089 0.048252646 0.11114339
0.011219752 0.08180583 0.09083036 -0.007985924 0.07847621 0.05989549 0.028678214 0.014021273
0.043018106 -0.06973707 -0.051684983 0.07517112 0.008438427 -0.102439016 -0.0123485755 0.019659797
-0.016132006 0.043848377 -0.108228706 -0.0047987867 0.046546474 -0.08024917 0.037089262 0.047519352
0.05176297 -0.022400385 -0.02123381 0.053244535 -0.098107636 -0.017187923 0.029072423 -0.016706511
-0.056658532 0.043190513 -0.03535899 -0.10863916 -0.00988213 -0.036360532 -0.08512053 -0.028229993
-0.06301633 0.024199782 -0.039748076 0.08592851 -0.062492587 -0.012645216 0.06638791 -0.004422987
-0.055769563 -0.04993353 -0.070159 -0.03159647 -0.03002266 0.0023141494 0.037320558 -0.056577273
0.029532475 0.008634919 -0.048267026 -0.05040723 -0.04996653 -0.08931641 -0.03257687 0.002820416
-0.01932175 0.09904722 -0.06821271 -0.064476036 0.017138012 0.04051083 0.01639814 -0.08121568
00000000: a4d6 dcbc bad8 153d 1875 9fbd 06f5 babb
00000010: fc56 99bd e955 b6bd b501 9c3c 7de3 b23b
00000020: f9be 90bd 7474 49bd 2b52 4bbd 2b43 c9bb
00000030: 7904 3e3d d665 0e3d 155f 12bd f0b0 2c3d
00000040: e350 c03b c8d8 32bd f8f2 c63d ad96 fc3c
00000050: db96 2c3d aeea edbc b2d8 d03d e32f 1b3d
00000060: 498f dfba 8f0d bfbd 5218 8bbd 9d94 5c3d
00000070: a61d d1bc c8bb 7638 6d82 81ba 52b9 9ebc
00000080: 5eb1 163d 42ae 38bc 9141 1dbd c83c bc3c
00000090: 9e3e e6bd b6bd f8bc 4284 eabb 187a 5738
000000a0: e205 86b9 9958 48bd abe4 e13c d53d 5bbd
000000b0: 6bfd c33c 4a00 7fbd e69f d83c eaba 483d
000000c0: 782a 70bd f643 10bd 5338 7cbd 20ab c83c
000000d0: d51f 09bd 2db8 dfbc d47a c83c 77e7 b6bc
000000e0: 71ca cdbd e9d4 90bc cf5d 60bd 4602 293d
000000f0: fe87 6cbd 1051 3b3c 8f13 b23c badc 61bc
00000100: 7ac1 43bd 0347 b73d 50f3 0abd f177 2fbd
00000110: 6cd2 6abd 6a2c 823d 9be1 b5bd b153 b5bb
00000120: 1448 91bd 1a9b 903b 0a18 e73d 0842 e13d
00000130: a232 173c 0a9c 643d 032e 593d 3455 d4bd
00000140: 01a6 08be d564 e73d 0c15 92bc 52ec 77bd
00000150: 7e9c 3abd 5a92 6dbb 1aff 663d acf1 ea3c
00000160: 99e4 cfbc ffb9 f4bd bb48 a4bd afd1 453d
00000170: 964e 333d 35aa 653c 53c6 243d ec54 2abd
00000180: 73f1 ae3d acb3 acbd 0dee 593c 11e7 c7bc
00000190: e147 64bd 1f02 873c 0cf6 44bd 9bc2 a3bd
000001a0: 8e54 643d ed95 39bd b86c acbd 02a9 283c
000001b0: 9d47 103e 9cd9 663d 0ec8 1dbe 1f0c 1bbc
000001c0: 54c6 0e3d bc7a 543d 857b 0fbd 1c57 973c
000001d0: 54b2 60bd dd90 1dbd c033 62bd 06bc 95bd
000001e0: 8a44 623c 6f8c 92bc 16d9 b3bd 1e91 7bbc
000001f0: 58c5 78bd efbe 4cbd 7e10 34bd 80c7 ce3c
00000200: 7f00 d7bc 78ad cd3c 6edd 8fbc 9800 d83c
00000210: b831 733d 678e 8ebc 82c9 af3b 2025 c63c
00000220: 7eb6 77bd 9589 eebb 2110 b33d e492 8b3d
00000230: d63f ecba 8283 89bc f60a 5a3d 7b0a 383d
00000240: a16a 2bbe 524a 7a3d 23ad 063e 6a28 a23d
00000250: 8793 c4bc 4ca2 9f3d b029 ac3d 3012 063d
00000260: 81a8 27bc f41b 14bd 7415 ecbd e644 ad3c
00000270: 94ca 0abd 72be a13d 7f9a a8bc 2a18 cfbc
00000280: 3e34 183e a332 ff3c 023b 943b 51b9 b6bd
00000290: 09e1 81bd c486 b4bc 4b2f 193d 2195 e33d
000002a0: 21b9 d73d 11ac ed3d 8158 62bd 9e0f 933b
000002b0: 02a6 143d bd80 0fbc 2316 19bd 469a 0d3d
000002c0: 4cb4 8a3d ffe6 8f3c 882e 923c cad9 8abc
000002d0: 44b0 973c 738d c23c 91a4 453d 259f e33d
000002e0: 0dd3 373c d189 a73d 4505 ba3d 65d7 02bc
000002f0: 23b8 a03d f954 753d 93ee ea3c 7bb9 653c
00000300: c133 303d 4fd2 8ebd a2b3 53bd 51f3 993d
00000310: 5441 0a3c 8ccb d1bd ae51 4abc 950d a13c
00000320: 4527 84bc 5b9a 333d 03a7 ddbd 243f 9dbb
00000330: 84a7 3e3d ad59 a4bd e9ea 173d a7a3 423d
00000340: 6805 543d 0381 b7bc 87f2 adbc f116 5a3d
00000350: a8ec c8bd b0cd 8cbc 4a29 ee3c 18dc 88bc
00000360: c712 68bd 89e8 303d 97d4 10bd 357e debd
00000370: a8e8 21bc c8ee 14bd ac53 aebd 9642 e7bc
00000380: b50e 81bd 9f3e c63c e1ce 22bd 49fb af3d
00000390: 3af8 7fbd e12d 4fbc 62f6 873d b4ee 90bb
000003a0: a06e 64bd 1a87 4cbd 86af 8fbd 4d6b 01bd
000003b0: 15f2 f5bc fca8 173b 71dd 183d 92bd 67bd
000003c0: 17ee f13c 7a79 0d3c a5b3 45bd d077 4ebd
000003d0: b4a9 4cbd 86eb b6bd 536f 05bd bad6 383b
000003e0: a648 9ebc 45d9 ca3d 1bb3 8bbd 030c 84bd
000003f0: 0465 8c3c afee 253d 6455 863c 6854 a6bd

arith.constant5 f4 [64, 3, 3, 32]
-0.18800944 0.1889445 -0.17319521 -0.232984 0.008386607 -0.11693158 -0.030557234 0.0020375599
-0.057570547 -0.22642167 0.12056402 0.017048717 -0.11617148 -0.12614049 -0.09919326 -0.081848584
-0.1865101 -0.048489615 -0.18719923 -0.14806738 -0.08265232 0.008319276 0.03928857 -0.19234219
-0.11246998 -0.27309817 -0.14856376 -0.02634973 -0.022134084 0.0026944587 0.022543643 -0.17370388
-0.015010567 0.11569016 0.10736609 0.047578342 0.0021873156 0.06615094 -0.038298488 0.122984536
0.091960005 0.10019367 0.09908505 0.019654687 0.019962547 0.09277353 0.03284575 -0.049399644
0.049109526 0.019812133 -0.043261256 0.03934271 -0.035100453 -0.10546305 0.109621815 0.09547645
-0.00024402235 -0.06766461 -0.016199624 0.024298765 -0.08864603 -0.021380004 -0.06705145 0.041259807
0.01988405 0.0080194725 0.010356556 -0.018477544 0.042346098 0.019510074 -0.10513622 0.097517125
0.060093455 -0.055193886 0.12950952 0.030810036 -0.027158242 0.09091724 0.0238418 -0.038757555
-0.0737352 -0.01210031 0.016228942 -0.07053888 0.0717708 -0.09835966 -0.031118797 0.033186447
-0.014272738 -0.057239078 -0.08035736 0.041927006 0.04364478 0.12269105 -0.009761272 0.025481872
-0.12431248 0.17205448 -0.10308884 -0.12259725 -0.05073124 -0.057005744 -0.0015497662 -0.038799267
0.06657456 -0.03946584 0.14437984 0.06760566 0.04526463 0.15311226 0.059128087 -0.04564452
-0.071707636 0.011340537 -0.11376279 -0.13176519 0.01769059 0.03727171 -0.0028249123 0.026298756
-0.03558984 -0.1732065 -0.2288053 -0.2032097 -0.06624496 0.04390626 -0.014324459 -0.14227949
0.054940306 0.019590583 0.0101928655 0.072626084 -0.012919145 0.06689303 0.0057133553 0.014583683
0.08998101 0.08817583 0.06275368 0.018982232 0.064428195 0.18326831 -0.020540651 -0.0047589443
0.05448614 0.17271955 0.08072142 0.052806206 0.060763553 0.0615634 -0.08162071 -0.015004678
0.10341366 -0.03827868 -0.098368965 0.049803756 -0.08186109 -0.02432325 -0.0057461485 0.073074736
0.15834989 -0.054494716 0.11376571 -0.015751863 -0.10550443 0.005578132 -0.0035882345 0.015397814
0.014087108 0.06539343 0.07425704 0.04015436 0.11353465 0.17788956 0.077759564 -0.0030290126
-4.487628e-05 0.09229038 -0.07082691 0.10202697 0.034191813 0.053198796 -0.12536095 0.11076726
0.0745328 0.09094675 0.0033097067 -0.012663865 -0.13611986 -0.07677579 0.009589693 -0.008319348
-0.07320738 0.04213029 -0.08329633 -0.069320865 -0.09955432 0.055192698 -0.07188046 -0.11138751
-0.03112221 0.06437544 0.043967873 0.046940897 0.03168453 0.004813391 -0.042320993 -0.06235513
0.06396285 0.07151062 0.021923559 -0.04013177 0.06741881 0.066383354 -0.17748283 0.043800067
-0.09848518 -0.04003748 -0.09004311 -0.05768445 -0.093356766 -0.09622546 -0.087009676 0.06836564
-0.06934988 -0.107335925 0.0070226816 -6.609715e-05 -0.047117267 0.0012219748 -0.0865897 -0.020242741
0.03567955 -0.026277296 -0.0536295 0.07599985 -0.014056811 -0.025784662 0.06709091 0.069784425
0.05364653 -0.06974047 0.043064203 0.086538166 0.02390446 0.01802777 0.003850585 0.008257753
-0.039933752 -0.013040316 -0.07779859 -0.095247105 0.060314547 -0.10116649 0.018639062 0.082637556
00000000: 8c85 40be ab7a 413e 165a 31be 5c93 6ebe
00000010: fb67 093c d379 efbd 2a53 fabc 9588 053b
00000020: 18cf 6bbd 15db 67be 45ea f63d c0a9 8b3c
00000030: 50eb edbd f92a 01be d625 cbbd 3ba0 a7bd
00000040: 81fc 3ebe 0c9d 46bd 28b1 3fbe fa9e 17be
00000050: 9f45 a9bd 934d 083c 0ded 203d 5af5 44be
00000060: a956 e6bd 86d3 8bbe 1921 18be 64db d7bc
00000070: 8a52 b5bc 8495 303b 72ad b83c 6edf 31be
00000080: e2ee 75bc f6ee ec3d c1e2 db3d 82e1 423d
00000090: 1159 0f3b 257a 873d e0de 1cbd 51df fb3d
000000a0: 8755 bc3d 5732 cd3d 1aed ca3d de02 a13c
000000b0: 7f88 a33c 0c00 be3d 4489 063d 4857 4abd
000000c0: 1227 493d 0e4d a23c b732 31bd d225 213d
000000d0: 7ec5 0fbd 03fd d7bd 6781 e03d 2889 c33d
000000e0: 40e0 7fb9 be93 8abd 13b5 84bc 340e c73c
000000f0: 0d8c b5bd 1e25 afbc 4552 89bd 0b00 293d
00000100: e0e3 a23c 1b64 033c 8bae 293c 385e 97bc
00000110: 1a73 2d3d 97d3 9f3c a951 d7bd 0fb7 c73d
00000120: 8e24 763d fc12 62bd 259e 043e 5465 fc3c
00000130: f67a debc d132 ba3d e14f c33c 3ec0 1ebd
00000140: 7b02 97bd 6140 46bc 8ff2 843c b076 90bd
00000150: 92fc 923d ca70 c9bd d9ec febc 83ee 073d
00000160: 34d8 69bc 8673 6abd 6692 a4bd a7bb 2b3d
00000170: dec4 323d 7245 fb3d beed 1fbc 5cbf d03c
00000180: 8b97 febd 0d2f 303e 3e20 d3bd 4414 fbbd
00000190: 90cb 4fbd db7e 69bd 8621 cbba fbeb 1ebd
000001a0: 3e58 883d efa6 21bd 4fd8 133e d674 8a3d
000001b0: 6867 393d 76c9 1c3e 4b30 723d c0f5 3abd
000001c0: 74db 92bd a9cd 393c 77fc e8bd 74ed 06be
000001d0: dbeb 903c 38aa 183d 2a22 39bb 7d70 d73c
000001e0: a7c6 11bd 0b5d 31be f04b 6abe 3416 50be
000001f0: 70ab 87bd 0dd7 333d 23b1 6abc b7b1 11be
00000200: 1609 613d 6e7c a03c faff 263c fcbc 943d
00000210: d2aa 53bc 37ff 883d 1937 bb3b 66f0 6e3c
00000220: f747 b83d 8895 b43d 0085 803d a080 9b3c
00000230: eef2 833d b0aa 3b3e de44 a8bc ebf0 9bbb
00000240: dc2c 5f3d 65dd 303e 4651 a53d 524b 583d
00000250: 34e3 783d e729 7c3d c228 a7bd 2ed6 75bc
00000260: 8aca d33d 1bca 1cbd ab75 c9bd 06ff 4b3d
00000270: caa6 a7bd 8d41 c7bc 304a bcbb 35a8 953d
00000280: 7926 223e da35 5fbd fffd e83d 0d0a 81bc
00000290: b512 d8bd c3c8 b63b 9628 6bbb 1d47 7c3c
000002a0: 9dcd 663c feec 853d 1314 983d e678 243d
000002b0: db84 e83d ae28 363e 6840 9f3d 6682 46bb
000002c0: 8a39 3cb8 bd02 bd3d b30d 91bd 84f3 d03d
000002d0: b70c 0c3d fbe6 593d 9f5e 00be f2d9 e23d
000002e0: a7a4 983d 4a42 ba3d aae7 583b 1a7c 4fbc
000002f0: 0163 0bbe a03c 9dbd 161e 1d3c e04d 08bc
00000300: c0ed 95bd d090 2c3d 4497 aabd 19f8 8dbd
00000310: 23e3 cbbd bd11 623d 1036 93bd 231f e4bd
00000320: 01f4 febc 45d7 833d a817 343d 1945 403d
00000330: a3c7 013d a6b9 9d3b c758 2dbd 1868 7fbd
00000340: f4fe 823d 2974 923d 0999 b33c 3661 24bd
00000350: e012 8a3d fff3 873d 0fbe 35be b367 333d
00000360: 99b2 c9bd 57fe 23bd 8668 b8bd 8846 6cbd
00000370: d531 bfbd db11 c5bd 2132 b2bd 4903 8c3d
00000380: 4f07 8ebd f0d2 dbbd 861e e63b a39d 8ab8
00000390: 09fe 40bd ac2a a03a f155 b1bd 1bd4 a5bc
000003a0: b824 123d 7c43 d7bc 9baa 5bbd cfa5 9b3d
000003b0: 8a4e 66bc 5b3a d3bc f666 893d 23eb 8e3d
000003c0: 77bc 5b3d 17d4 8ebd 1764 303d ec3a b13d
000003d0: 49d3 c33c f9ae 933c 195a 7c3b 874b 073c
000003e0: 9391 23bd 0da7 55bc de54 9fbd ea10 c3bd
000003f0: 630c 773d 6030 cfbd f2b0 983c e13d a93d

arith.constant6 f4 [6, 128]
0.16804522 0.15879515 -0.062061235 0.040547907 -0.06770512 0.18997677 0.15404141 -0.3135563
0.03158441 -0.11642015 -0.28210425 -0.08978054 -0.13552314 0.08047217 -0.03146873 0.2016649
-0.09342702 -0.2618071 -0.032611277 0.078665644 0.1743673 -0.23418638 0.09082008 -0.13431333
-0.19720994 -0.24588151 -0.20671421 -0.22087574 -0.20656584 -0.048859768 -0.28718424 -0.21682629
0.18499225 0.06376026 0.2571261 -0.042236608 0.12442036 -0.021845303 0.16270983 0.05868903
0.063392065 0.006511741 0.18964632 0.059837643 0.0011416855 0.044122465 -0.12069418 0.13385698
-0.09793532 -0.17797343 0.25540972 -0.16330682 0.12089998 0.07534939 0.012977324 0.16050379
0.21449237 -0.13747868 0.21100765 0.030112483 -0.017600425 -0.08534761 -0.07957649 -0.0054659625
-0.2270721 0.12584774 0.2023321 -0.108839326 -0.1804054 0.042181216 -0.075817734 -0.18288434
-0.1338585 0.13034984 0.116327934 0.18367971 -0.0049248612 -0.10647391 -0.34058332 0.16963002
0.11684317 0.17187609 -0.23267822 0.013990796 0.12879337 0.055641808 0.017501658 -0.14422701
0.11862482 -0.036410443 -0.20283204 -0.034840472 -0.3158168 0.1266962 -0.015210617 -0.21706858
0.14850904 -0.26225784 -0.12797806 -0.3221761 -0.07654744 0.19869594 -0.06525457 -0.27509236
-0.14623201 0.00682861 -0.08027492 -0.0575904 -0.19073346 0.03055728 -0.20582761 -0.07733288
0.16913977 -0.2431552 0.27291295 0.10603965 -0.12690125 -0.083154246 0.19376694 -0.057400502
0.17421389 0.20163767 0.09447395 0.10436607 0.12462168 0.06648968 -0.14679106 -0.14258088
-0.10627984 -0.25677985 -0.15275523 0.07543182 -0.15391698 0.16914067 -0.05648595 0.04544862
0.22130826 0.063819766 0.07824781 0.16889828 0.22217052 -0.13113493 0.05171769 -0.062453624
0.1348834 0.12526125 -0.22176462 -0.26657042 -0.29522976 -0.07126299 -0.2330541 0.10895745
0.024098339 -0.22265163 0.21663292 0.2807111 0.10861434 -0.19100714 -0.2988561 0.11713022
0.0232656 -0.24807253 0.039235137 0.2241642 0.20065503 -0.3826104 0.08954391 0.1848199
0.0100329425 -0.04636827 -0.2746388 0.056740277 -0.34117875 -0.23101656 0.16534437 -0.023609746
-0.2703781 0.0075417496 0.24759936 -0.040249545 0.036749277 -0.29924035 -0.14800148 -0.23004556
-0.21657535 0.19940169 -0.076508045 0.20172893 -0.17787021 0.03832894 0.13542628 0.19178161
0.2712623 -0.11202192 -0.23535715 0.14993098 -0.19464913 0.1443073 0.31341898 -0.065008484
0.12789707 -0.09865224 0.08842484 -0.34883174 -0.057958666 0.10670873 -0.04994642 -0.21137244
-0.3644435 0.14482677 -0.23724921 -0.18712099 0.032161582 -0.040245134 -0.19991393 -0.09243177
0.17332615 0.08732911 -0.12348745 -0.32835066 0.1356793 0.08591638 0.21654817 -0.32659817
-0.1339553 0.0028515814 -0.04086648 0.23426263 -0.12348644 0.13276875 -0.17905748 0.2391586
-0.101610325 0.018791853 -0.3080492 -0.19602714 0.099363446 -0.30360675 0.24232027 -0.0017830991
-0.03634234 0.20776549 -0.17348991 0.23349102 -0.22804871 -0.19244939 -0.17289315 0.30368453
-0.14700416 -0.024452645 0.23050268 -0.29361042 -0.29630232 -0.27995548 0.222912 0.013158494
00000000: 0c14 2c3e 329b 223e ec33 7ebd 9015 263d
00000010: fba8 8abd 4589 423e 08bd 1d3e 748a a0be
00000020: a85e 013d b06d eebd f86f 90be dcde b7bd
00000030: 94c6 0abe 98ce a43d 5be5 00bd 3e81 4e3e
00000040: aa56 bfbd 950b 86be 6793 05bd 741b a13d
00000050: 578d 323e 8ece 6fbe e1ff b93d 6f89 09be
00000060: 67f1 49be 5dc8 7bbe e4ac 53be 402d 62be
00000070: ff85 53be 2e21 48bd d009 93be b607 5ebe
00000080: 9c6e 3d3e bd94 823d 08a6 833e 4b00 2dbd
00000090: 1ad0 fe3d ecf4 b2bc 689d 263e e963 703d
000000a0: b3d3 813d 7160 d53b a532 423e 5118 753d
000000b0: 9ca4 953a c2b9 343d 832e f7bd ce11 093e
000000c0: 5092 c8bd ab3e 36be 10c5 823e e739 27be
000000d0: 699a f73d c850 9a3d d89e 543c 1b5b 243e
000000e0: e3a3 5b3e 36c7 0cbe 6412 583e 74ae f63c
000000f0: c42e 90bc baca aebd 00f9 a2bd d11b b3bb
00000100: 9785 68be 3bde 003e 2530 4f3e 27e7 debd
00000110: 31bc 38be 36c6 2c3d 5446 9bbd 0846 3bbe
00000120: 3412 09be 6e7a 053e 573d ee3d 8916 3c3e
00000130: bb60 a1bb fe0e dabd f060 aebe 7eb3 2d3e
00000140: 794b ef3d 4900 303e 3343 6ebe a739 653c
00000150: 69e2 033e aae8 633d a35f 8f3c 3fb0 13be
00000160: 92f1 f23d 1e23 15bd 34b3 4fbe e2b4 0ebd
00000170: bdb2 a1be a6bc 013e f435 79bc 3a47 5ebe
00000180: c112 183e a946 86be ae0c 03be 44f4 a4be
00000190: e7c4 9cbd f376 4b3e 30a4 85bd e8d8 8cbe
000001a0: d8bd 15be 88c2 df3b 2d67 a4bd e9e3 6bbd
000001b0: a24f 43be 4353 fa3c 79c4 52be b360 9ebd
000001c0: fa32 2d3e adfd 78be 3fbb 8b3e 512b d93d
000001d0: 67f2 01be c64c aabd d76a 463e ca1c 6bbd
000001e0: 2065 323e 1b7a 4e3e 8f7b c13d e1bd d53d
000001f0: a739 ff3d be2b 883d 6550 16be b900 12be
00000200: 3fa9 d9bd a678 83be de6b 1cbe ff7b 9a3d
00000210: 6a9c 1dbe 3633 2d3e d05d 67bd 5528 3a3d
00000220: a29e 623e f0b3 823d 6340 a03d acf3 2c3e
00000230: ab80 633e 3c48 06be eed5 533d 5fcf 7fbd
00000240: e01e 0a3e 7c44 003e 4416 63be eb7b 88be
00000250: 5b28 97be 55f2 91bd bca5 6ebe 1525 df3d
00000260: e169 c53c cafe 63be 05d5 5d3e 5eb9 8f3e
00000270: 3271 de3d 6097 43be ab03 99be f8e1 ef3d
00000280: 8097 be3c ba06 7ebe 06b5 203d 4d8b 653e
00000290: 8378 4d3e 83e5 c3be cc62 b73d 6e41 3d3e
000002a0: 3661 243c a8ec 3dbd 759d 8cbe 7e68 683d
000002b0: fbae aebe 9b8f 6cbe 0950 293e 3a69 c1bc
000002c0: 006f 8abe c820 f73b b08a 7d3e b5dc 24bd
000002d0: 6986 163d 0836 99be b38d 17be 1091 6bbe
000002e0: eec5 5dbe f52f 4c3e 40b0 9cbd 0792 4e3e
000002f0: 9c23 36be cefe 1c3d 30ad 0a3e 6662 443e
00000300: e4e2 8a3e c06b e5bd 7701 71be 8287 193e
00000310: 1a52 47be 4bc5 133e 7478 a03e 2b23 85bd
00000320: 73f7 023e 300a cabd 1518 b53d 139a b2be
00000330: 1166 6dbd 1b8a da3d 9e94 4cbd 0472 58be
00000340: 5798 babe 784d 143e 75f1 72be a59c 3fbe
00000350: ddbb 033d 15d8 24bd 3db6 4cbe de4c bdbd
00000360: 697c 313e 9bd9 b23d fde6 fcbd 941d a8be
00000370: 84ef 0a3e edf4 af3d cebe 5d3e e037 a7be
00000380: 942b 09be 99e1 3a3b 9c63 27bd 8be2 6f3e
00000390: 75e6 fcbd 88f4 073e d85a 37be fee5 743e
000003a0: 1319 d0bd 5ff1 993c a0b8 9dbe 57bb 48be
000003b0: 107f cb3d 5872 9bbe ce22 783e e1b6 e9ba
000003c0: b5db 14bd 7ac0 543e 57a7 31be 4518 6f3e
000003d0: 9a85 69be 7411 45be e70a 31be 8a7c 9b3e
000003e0: 4288 16be ea50 c8bc e508 6c3e 1b54 96be
000003f0: f0b4 97be 5356 8fbe 0b43 643e b996 573c

arith.constant7 f4 [128, 512]
-0.09762132 -0.05324034 0.0156027805 -0.1535418 -0.06409646 0.048925508 -0.078577876 0.028141329
-0.09592455 0.0679352 0.03872973 0.05448825 0.034425862 -0.09419101 -0.06534641 0.0062427195
-0.049446262 0.018397728 0.085394636 -0.030235903 -0.017008709 -0.046642404 0.13917682 0.079403795
-0.00031217068 0.029401783 0.023249757 0.05840447 0.057464253 0.020078145 -0.10876811 -0.057478353
0.10062371 0.107177466 0.019043557 0.053392425 0.04338267 -0.004137909 0.013033697 -0.046928763
-0.051876657 0.017154856 0.0828494 0.070858106 -0.034470834 0.11211341 -0.06875799 -0.014128444
0.06514741 0.036789663 -0.025278397 0.0068878927 -0.13880242 -0.0049056136 -0.058138818 0.06341474
-0.14796469 -0.024824461 0.048789576 -0.1466355 -0.0055692936 -0.10646505 0.022477863 -0.046890695
-0.06465081 -0.0045059365 -0.024071017 -0.02055191 0.040745396 0.026553333 -0.09544897 -0.0045964723
0.047607962 0.070220724 0.036047596 -0.08929299 0.1364365 -0.007232426 0.04975308 0.0026984152
0.038888067 -0.06483719 -0.0490312 -0.03659097 0.018139837 -0.05909456 0.10576667 0.04892272
0.0020445003 0.0935435 -0.1544628 -0.12269483 -0.0353165 0.04798457 0.030038044 0.06514416
0.03903653 -0.012063924 0.050942536 -0.05075087 0.0025624505 0.06772444 0.018682878 0.07787491
0.044233803 -0.018478876 -0.039177004 0.07027503 0.06030343 0.084891595 0.0047371807 0.010084302
-0.060585212 0.09142724 0.012699824 0.060556535 -0.10059158 -0.01734342 0.04411855 0.13120686
0.0073307087 -0.03971342 0.032769255 0.05909038 -0.027233973 0.015354941 -0.07484253 -0.008528453
0.038726937 0.017222514 -0.004597676 -0.05302759 0.05180572 0.077385664 0.03468987 0.040729597
0.1259 0.10661108 0.025379874 -0.10309281 -0.022589467 0.023773374 0.005363365 -0.06311671
0.087077275 0.110284224 -0.036151312 -0.13422513 0.058532882 -0.053462338 0.043528624 0.027585832
0.023161033 -0.062194567 -0.08304783 -0.05633286 -0.1318933 -0.10863405 -0.03941441 0.0599151
-0.03251031 -0.08805133 -0.08361063 -0.02449522 -0.05255973 -0.119472794 0.12793264 -0.05969649
0.11335972 -0.028542088 0.015087625 -0.036271397 0.0025927715 -0.058379415 0.06380076 -0.10375878
-0.04847096 0.122621484 -0.04227539 -0.07451356 0.041335095 -0.018295383 0.09968284 -0.18345247
0.047822606 -0.09395252 0.036299147 -0.050618146 -0.042550635 0.08704943 0.024773387 0.08542057
-0.0075162216 -0.057722446 -0.11394051 0.032465227 -0.10721373 -0.00047519454 0.073327206 -0.058224306
0.093493 -0.05017923 0.03403464 0.052967098 -0.096399665 0.055453397 0.019574437 -0.1031737
0.016303211 0.121948734 -0.040549338 -0.014918569 0.07685442 -0.084197 -0.09786045 -0.003150891
-0.010171981 0.07414365 -0.0189043 0.041111387 -0.070290506 0.07453359 0.0027719613 -0.027562605
0.045985524 -0.0087312 -0.036162354 -0.1349425 0.053781323 -0.044479717 -0.050284036 0.013147658
-0.065875545 0.046398915 -0.051243648 0.08391037 0.118222326 -0.09870077 0.049226474 0.0597887
-0.037930794 -0.14486293 -0.02014742 -0.07651945 -0.03527969 0.0048083216 0.0014397552 -0.092055336
-0.058771934 -0.0050093327 0.026026376 -0.10417916 0.009269467 -0.026746934 0.103711806 -0.112609655
00000000: b0ed c7bd 8b12 5abd cea2 7f3c 103a 1dbe
00000010: 0145 83bd 1d66 483d 70ed a0bd a588 e63c
00000020: 1774 c4bd 9c21 8b3d 11a3 1e3d 122f 5f3d
00000030: 2202 0d3d 37e7 c0bd 57d4 85bd ba8f cc3b
00000040: 2a88 4abd d5b6 963c 62e3 ae3d 49b1 f7bc
00000050: d955 8bbc 1b0c 3fbd 5e84 0e3e 759e a23d
00000060: d7aa a3b9 02dc f03c 4676 be3c 8739 6f3d
00000070: a35f 6b3d ec7a a43c d1c1 debd 6c6e 6bbd
00000080: ce13 ce3d dc7f db3d 3c01 9c3c 04b2 5a3d
00000090: 07b2 313d 4c97 87bb 4a8b 553c 6038 40bd
000000a0: 9e7c 54bd 5788 8c3c f2ac a93d 0e1e 913d
000000b0: 4a31 0dbd b79b e53d fdd0 8cbd fd7a 67bc
000000c0: 016c 853d c2b0 163d a414 cfbc d5b3 e13b
000000d0: 3922 0ebe 45bf a0bb f822 6ebd 96df 813d
000000e0: 0e84 17be ab5c cbbc 94d7 473d 9e27 16be
000000f0: 9f7e b6bb 590a dabd 7f23 b83c 7510 40bd
00000100: a567 84bd 89a6 93bb 9530 c5bc 7b5c a8bc
00000110: a5e4 263d 6086 d93c c07a c3bd 019e 96bb
00000120: 9100 433d e2cf 8f3d a5a6 133d 3edf b6bd
00000130: 03b6 0b3e fdfd ecbb e3c9 4b3d e5d7 303b
00000140: 1849 1f3d 5cc9 84bd f1d4 48bd 6ae0 15bd
00000150: ff99 943c 230d 72bd 329c d83d 3163 483d
00000160: 06fd 053b bc93 bf3d 7f2b 1ebe 6d47 fbbd
00000170: 09a8 10bd 788b 443d 5812 f63c 4d6a 853d
00000180: c5e4 1f3d c4a7 45bc 1fa9 503d 25e0 4fbd
00000190: c9ee 273b 1cb3 8a3d d60c 993c e17c 9f3d
000001a0: 812e 353d 0361 97bc 1178 20bd 5bec 8f3d
000001b0: bb00 773d a5db ad3d 5a3a 9b3b a138 253c
000001c0: 3328 78bd 343e bb3d ec12 503c 210a 783d
000001d0: f502 cebd ca13 8ebc a7b5 343d 175b 063e
000001e0: 7136 f03b 8aaa 22bd 0e39 063d c108 723d
000001f0: c819 dfbc 4a93 7b3c 0a47 99bd edba 0bbc
00000200: 23a0 1e3d 3b16 8d3c 1aa8 96bb 7533 59bd
00000210: 3c32 543d 607c 9e3d f716 0e3d 14d4 263d
00000220: eeeb 003e e956 da3d 74e9 cf3c 5322 d3bd
00000230: 8c0d b9bc 61c0 c23c 2bbf af3b 5543 81bd
00000240: 9255 b23d b2dc e13d 6613 14bd 5072 09be
00000250: 2dc0 6f3d 53fb 5abd 124b 323d affb e13c
00000260: 35bc bd3c bbbf 7ebd fb14 aabd 49bd 66bd
00000270: 0a0f 07be 877b debd 0171 21bd 8969 753d
00000280: 8829 05bd 4154 b4bd 0d3c abbd 33aa c8bc
00000290: df48 57bd 27ae f4bd c600 033e 4f84 74bd
000002a0: 2429 e83d 19d1 e9bc 1632 773c 5191 14bd
000002b0: 7deb 293b 411f 6fbd f9a9 823d 7c7f d4bd
000002c0: 7c89 46bd f920 fb3d f628 2dbd 919a 98bd
000002d0: fd4e 293d 33e0 95bc 8426 cc3d f7da 3bbe
000002e0: a3e1 433d 2e6a c0bd 6aae 143d f954 4fbd
000002f0: 9349 2ebd f946 b23d 8ff1 ca3c fbf0 ae3d
00000300: a34a f6bb 5f6e 6cbd a459 e9bd 42fa 043d
00000310: df92 dbbd 8823 f9b9 932c 963d 9c7c 6ebd
00000320: 4279 bf3d bc88 4dbd e867 0b3d 07f4 583d
00000330: 306d c5bd 1a23 633d 925a a03c bc4c d3bd
00000340: 508e 853c 42c0 f93d 1017 26bd 036d 74bc
00000350: da65 9d3d 7a6f acbd 0f6b c8bd 2e7f 4ebb
00000360: 61a8 26bc a0d8 973d 31dd 9abc 6a64 283d
00000370: 78f4 8fbd 11a5 983d cba9 353b f9ca e1bc
00000380: 515b 3c3d 4f0d 0fbc fa1e 14bd 5e2e 0abe
00000390: ce49 5c3d 5d30 36bd a2f6 4dbd 4669 573c
000003a0: c2e9 86bd ca0c 3e3d dce4 51bd 33d9 ab3d
000003b0: 8c1e f23d a123 cabd b3a1 493d ffe4 743d
000003c0: 525d 1bbd f356 14be 340c a5bc 3bb6 9cbd
000003d0: 7081 10bd 208f 9d3b 2bb6 bc3a 8287 bcbd
000003e0: d7ba 70bd 5425 a4bb 4435 d53c e25b d5bd
000003f0: f6de 173c 631c dbbc db66 d43d e49f e6bd

arith.constant8 f4 [128]
0.047088824 0.05890976 0.029819064 0.0664488 -0.014656335 0.07121212 0.051746815 0.04541707
0.052376714 0.06833456 0.05509035 0.050417446 0.009622179 0.053935938 0.101988375 0.041164316
-0.011559208 0.040010277 0.027823754 0.030587304 0.032918643 0.027650528 0.06495781 0.031071007
-0.04323289 0.0471506 -0.0011850672 0.03551572 0.0728467 0.06376415 0.06280869 0.026863554
0.054055933 0.026410893 0.06790249 0.07748037 0.044252027 0.07143878 0.043173496 0.040808976
0.046140224 0.078977205 0.032500114 0.04435939 0.04063234 0.03878401 0.06385205 0.061110318
0.0061338167 0.052570924 0.050082736 -0.0126867965 0.060325205 0.04904257 0.018967144 0.04743676
0.015386491 0.047455218 0.022704378 0.047574185 0.065105386 0.0363285 0.018294122 0.050552428
0.055319227 0.060607802 0.035441868 0.035920586 -0.022490088 0.06214759 0.045206722 -0.036969557
0.014427866 0.061642718 0.04755319 0.03441949 0.018012056 0.06089369 0.04642719 0.042922582
0.04125782 0.06370413 0.05403674 0.05582719 0.07612412 0.060552713 0.036326878 0.04834623
0.040438697 0.0403384 0.050325803 0.018891308 0.048659705 0.10510281 0.059218194 0.014996606
-0.013757222 0.061739698 0.06327506 0.062489655 0.039801113 0.061013643 0.030314902 0.043427758
-0.02497197 0.021226915 0.06590743 0.037765853 0.029875264 0.045234747 0.043089844 0.06566423
0.05958026 0.01266792 0.07424903 0.07080144 0.045941666 0.024016589 0.055607002 0.036198456
0.06730982 0.080630586 0.04193014 0.05236477 0.037511237 0.025233308 0.057717472 0.062062047
00000000: 36e0 403d 5c4b 713d 1c47 f43c 4f16 883d
00000010: 2021 70bc a9d7 913d 78f4 533d 4007 3a3d
00000020: f788 563d fdf2 8b3d 6ba6 613d 8682 4e3d
00000030: 58a6 1d3c eeeb 5c3d 48df d03d ea9b 283d
00000040: d562 3dbc d1e1 233d a4ee e33c 3a92 fa3c
00000050: b3d5 063d 5c83 e23c 9a08 853d a088 fe3c
00000060: f914 31bd fd20 413d 4254 9bba ee78 113d
00000070: a730 953d c796 823d d8a1 803d f510 dc3c
00000080: c169 5d3d a85b d83c 7610 8b3d 07ae 9e3d
00000090: 9d41 353d 7f4e 923d b1d6 303d 5027 273d
000000a0: 88fd 3c3d cdbe a13d d71e 053d 31b2 353d
000000b0: 196e 263d fbdb 1e3d ddc4 823d d04e 7a3d
000000c0: 2ffe c83b 9c54 573d 8e23 4d3d 48dc 4fbc
000000d0: 9017 773d dde0 483d fc60 9b3c 0c4d 423d
000000e0: 9f17 7c3c 6760 423d 88fe b93c 26dd 423d
000000f0: f955 853d 31cd 143d 8edd 953c 1010 4f3d
00000100: 6a96 623d e33f 783d 7e2b 113d 7721 133d
00000110: 223d b8bc 798e 7e3d af2a 393d 646d 17bd
00000120: db62 6c3c 137d 7c3d 22c7 423d 73fb 0c3d
00000130: 058e 933c a96b 793d 702a 3e3d 97cf 2f3d
00000140: f6fd 283d 5077 823d a155 5d3d 0dab 643d
00000150: f6e6 9b3d 1f06 783d 7ecb 143d b206 463d
00000160: 0ca3 253d e139 253d 6e22 4e3d f2c1 9a3c
00000170: 664f 473d 2440 d73d c78e 723d 53b4 753c
00000180: f965 61bc c4e2 7c3d 5b96 813d 27f5 7f3d
00000190: 7e06 233d 71e9 793d f556 f83c 4ee1 313d
000001a0: 0492 ccbc 11e4 ad3c 7afa 863d 5eb0 1a3d
000001b0: f8bc f43c 1248 393d fa7e 303d f87a 863d
000001c0: 6e0a 743d 1c8d 4f3c e00f 983d 5800 913d
000001d0: 542d 3c3d 70be c43c 2bc4 633d d544 143d
000001e0: bbd9 893d a621 a53d f0be 2b3d 717c 563d
000001f0: 62a5 193d 15b6 ce3c 2869 6c3d c634 7e3d

arith.constant9 f4 [6]
0.030485721 -0.017913183 -0.101395376 0.056688752 0.0060249884 0.01782955
00000000: 31bd f93c abbe 92bc 61a8 cfbd 7732 683d
00000010: 446d c53b 470f 923c
